…
Using TensorFlow backend.
(90, 9)
((5534, 700, 9), (5534, 700, 90), (514, 700, 90))
2019-04-03 18:07:45.489858: I tensorflow/core/platform/cpu_feature_guard.cc:141] Your CPU supports instructions that this TensorFlow binary was not compiled to use: AVX2 AVX512F FMA
__________________________________________________________________________________________________
Layer (type)                    Output Shape         Param #     Connected to                     
==================================================================================================
input_1 (InputLayer)            (None, 700, 90)      0                                            
__________________________________________________________________________________________________
dense_1 (Dense)                 (None, 700, 128)     11648       input_1[0][0]                    
__________________________________________________________________________________________________
reshape_1 (Reshape)             (None, 700, 128, 1)  0           dense_1[0][0]                    
__________________________________________________________________________________________________
zero_padding2d_1 (ZeroPadding2D (None, 702, 128, 1)  0           reshape_1[0][0]                  
__________________________________________________________________________________________________
zero_padding2d_2 (ZeroPadding2D (None, 706, 128, 1)  0           reshape_1[0][0]                  
__________________________________________________________________________________________________
zero_padding2d_3 (ZeroPadding2D (None, 710, 128, 1)  0           reshape_1[0][0]                  
__________________________________________________________________________________________________
conv2d_1 (Conv2D)               (None, 700, 1, 64)   24640       zero_padding2d_1[0][0]           
__________________________________________________________________________________________________
conv2d_2 (Conv2D)               (None, 700, 1, 64)   57408       zero_padding2d_2[0][0]           
__________________________________________________________________________________________________
conv2d_3 (Conv2D)               (None, 700, 1, 64)   90176       zero_padding2d_3[0][0]           
__________________________________________________________________________________________________
batch_normalization_1 (BatchNor (None, 700, 1, 64)   256         conv2d_1[0][0]                   
__________________________________________________________________________________________________
batch_normalization_2 (BatchNor (None, 700, 1, 64)   256         conv2d_2[0][0]                   
__________________________________________________________________________________________________
batch_normalization_3 (BatchNor (None, 700, 1, 64)   256         conv2d_3[0][0]                   
__________________________________________________________________________________________________
concatenate_1 (Concatenate)     (None, 700, 1, 192)  0           batch_normalization_1[0][0]      
                                                                 batch_normalization_2[0][0]      
                                                                 batch_normalization_3[0][0]      
__________________________________________________________________________________________________
reshape_2 (Reshape)             (None, 700, 192)     0           concatenate_1[0][0]              
__________________________________________________________________________________________________
bidirectional_1 (Bidirectional) (None, 700, 64)      43200       reshape_2[0][0]                  
__________________________________________________________________________________________________
bidirectional_2 (Bidirectional) (None, 700, 64)      18624       bidirectional_1[0][0]            
__________________________________________________________________________________________________
bidirectional_3 (Bidirectional) (None, 700, 64)      18624       bidirectional_2[0][0]            
__________________________________________________________________________________________________
concatenate_2 (Concatenate)     (None, 700, 384)     0           bidirectional_1[0][0]            
                                                                 bidirectional_2[0][0]            
                                                                 bidirectional_3[0][0]            
                                                                 reshape_2[0][0]                  
__________________________________________________________________________________________________
time_distributed_1 (TimeDistrib (None, 700, 256)     98560       concatenate_2[0][0]              
__________________________________________________________________________________________________
dropout_1 (Dropout)             (None, 700, 256)     0           time_distributed_1[0][0]         
__________________________________________________________________________________________________
time_distributed_2 (TimeDistrib (None, 700, 128)     32896       dropout_1[0][0]                  
__________________________________________________________________________________________________
dropout_2 (Dropout)             (None, 700, 128)     0           time_distributed_2[0][0]         
__________________________________________________________________________________________________
time_distributed_3 (TimeDistrib (None, 700, 9)       1152        dropout_2[0][0]                  
==================================================================================================
Total params: 397,696
Trainable params: 397,312
Non-trainable params: 384
__________________________________________________________________________________________________
Epoch 1/1
  64/5534 [..............................] - ETA: 8:03 - loss: 2.003
…
